MaxCNN_model.pth (torch, 901631 bytes, 18 tensors)

conv1.weight f4 [32, 4, 3, 3]
00000000: ef61 36bc 9efa b03d 032d 03be c5ea f0bd
00000010: f2e8 7dbd f0cd 673d 9a8e 583c 7fd9 0b3e
00000020: a9cf 4cbb b01d 4a3d 4896 0fbd b14e 30bc
00000030: f2fb 1ebe c95f d0bd 1bdd 62bd 4029 f53c
00000040: e266 a53d abbf eb3d 5328 bebd 1a0f 55bd
00000050: 32c8 b73d 3dae 1e3e 5449 b7bc f0db 103e
00000060: 412a 623b 290c 013d bbda 273e 212d 31be
00000070: d018 f3bd 8145 27bd 4437 b8bd 6655 f53d
00000080: fc61 fbbd 7c1f b1bd 903f 08be 1c0c 2abe
00000090: 5157 c5bd 0386 133e c69d 973d a6c9 9e3d
000000a0: 4986 a83b fa0d b9bd 943d 9e3c 9f6e 29be
000000b0: 3019 07be fde8 a9bd 237d e13d 6e60 d33d
000000c0: 14cd 9cbd 63d3 e4bb 4973 d93d f5c2 1e3e
000000d0: caf1 663d 8f1a 573c 4b5a e33d ac0a c9bd
000000e0: 83c8 fb3c 3596 05be ea17 f1bd 6efb b7bd
000000f0: f128 943d 0ea0 7c3d 74a1 dabd 0bc2 423d
00000100: a068 bc3d f788 a1bc 145c 403b afef 1a3d
00000110: 1322 d23d 6947 1e3e 8c38 07be 303b 85bd
00000120: cc91 9b3d 85e9 183e 195c 203e aefc 1a3e
00000130: 5bcb 1c3d 6841 0ebe df1e 563c 0341 d9bd
00000140: a44b 1fbe 1075 253e 54ba 113e 0c3a 19be
00000150: 350a 1f3d 4ef6 93bc 6a63 85bc 78f2 9abd
00000160: 0938 883d 7978 c2bd c7de ac3d df08 dd3d
00000170: 2148 123e 807c a83d 9589 14be eedd b5bd
00000180: 10d1 ca3d 8fc3 4c3d 7f4a edbd 0e1b b3bd
00000190: 4ca5 2b3e 59db ff3d f719 83bd ceb8 01bd
000001a0: 16f0 16be a927 863b 66bb f0bd 24ab f5bd
000001b0: d92b a2bb 3324 ea3c d6a7 88bd d03e cf3d
000001c0: fbe3 ccbd a12e 1a3e d821 f13d 2f41 0dbe
000001d0: 0094 26bd cab9 1c3c 0513 c73c 643f 163d
000001e0: 00ca 873d cc47 103c f3f2 aebd 92a6 a63d
000001f0: 81e0 22be de2f cebd 9fbc fcbc e690 92bd
00000200: 04bb 5abd 4e6e 05be 8a2a f5bc 0cc8 173d
00000210: 75ba d6bd ae59 91bb 8f29 f73d bcc1 dbbb
00000220: 4bc8 813c 7ab0 afbb e7b0 353d be78 ef3d
00000230: 37d7 293e 6598 f03d 6e4d 2e3e fa8b 5dbb
00000240: cc42 1ebe d030 6ebd 94f4 123e 2754 d93b
00000250: f332 77bd ff6c c2bd 350c 07be c1af e7bd
00000260: 918d 6c3b 7c56 923d 177a d33d 499e 0ebe
00000270: 333b c13d a9e9 eabd 6c26 29bc b3c0 7dbd
00000280: 7a2d 1fbc 72e1 a8ba e78b 1dbe 6151 ebbd
00000290: 4f51 1e3c f1ca 1eba e5f8 42bd a7ac c83d
000002a0: b9f1 16be edc2 953c 55aa 3b3e ec3d a6bd
000002b0: f078 463e 8bae db3d 4818 24be 2bf0 193e
000002c0: a3d8 f23c d7a3 96bd 0c7d 393e 1a9a a9bd
000002d0: 2dcb 863c f638 11bd 5ac2 f43d 2e39 303d
000002e0: bde3 9e3d fb55 6b3d dcb8 2dbd 345e 15bd
000002f0: 715a 0dbe 736d a73d 7e92 003e 6c2a dc3d
00000300: 7b3f 03be 254f b0ba 74e2 00be 5af9 d2bd
00000310: 53a0 dabd 5059 423d a043 c7bd a2bd 67bb
00000320: a256 993b 4d51 d93d 3cc8 03be 4f94 f3bd
00000330: 80bc d0bd 446a e33d cf67 88bd 7be4 173e
00000340: a837 8b3d 7688 db3c 708c cb3b be45 d8bc
00000350: 95b8 ca3c 6374 02bd 46ae 5e3b a5f8 b63c
00000360: cbcc f9bd 2401 9dbd 80f7 183e d1d5 07be
00000370: e249 e8bb 3688 333e 8b22 833d 2207 203c
00000380: 8551 09be 0b1d ab3d a4f7 e9bd b428 1fbd
00000390: f9a1 6abd 9bdb bcbc c14d 003c 98aa 103e
000003a0: 00b0 db3c 6e47 233e 7116 d83d 63e6 c5bd
000003b0: a5ae b53d 12e4 f6bd 479f 89bd 6dbe 733d
000003c0: b3ac 5c3d 1633 053e 5176 27bd b5ea e63b
000003d0: 12bf b93d b3a6 1fbe a33c f93d 7173 0dbe
000003e0: 23c6 903b 8437 d4bc 1216 b0bd 67bc de3c
000003f0: a7cd 123e d28f 46bd 8450 d1bd b86b 7fbd
-0.011131748 0.086415514 -0.1281014 -0.11763529 -0.061989732 0.05659288 0.013217593 0.13657187
-0.0031251705 0.04934472 -0.03505543 -0.010760949 -0.15525797 -0.101745196 -0.055386644 0.029926896
0.08076264 0.11511167 -0.09285035 -0.052016355 0.08973731 0.15496154 -0.022373833 0.141464
0.0034510049 0.031505737 0.16392033 -0.17302372 -0.11869967 -0.04083777 -0.08994916 0.11979179
-0.122745484 -0.08648583 -0.13305497 -0.16606182 -0.09635795 0.1440659 0.0740314 0.07753305
0.005142961 -0.09035869 0.019316472 -0.16546105 -0.13193202 -0.08296392 0.11010196 0.10321127
-0.07656303 -0.006983207 0.10617692 0.15504058 0.05638293 0.013128891 0.111012064 -0.098164886
0.03073526 -0.1304558 -0.11772139 -0.08983503 0.072343715 0.061676078 -0.10675326 0.047548335
0.09199643 -0.01971863 0.0029351758 0.037826236 0.102604054 0.15456928 -0.13205165 -0.0650543
0.07596168 0.1493283 0.15660132 0.15135452 0.038279872 -0.13892138 0.013068884 -0.10608103
-0.15556198 0.16157937 0.14231235 -0.1496355 0.038828094 -0.018061783 -0.016282756 -0.075657785
0.06651313 -0.094956346 0.08440929 0.10792708 0.14285327 0.082268715 -0.14505608 -0.0888022
0.09903157 0.049991187 -0.115864746 -0.08745395 0.16762275 0.12493009 -0.06401437 -0.031670384
-0.14740023 0.0040940833 -0.117544934 -0.11995533 -0.0049490747 0.028581714 -0.06672637 0.101194024
-0.10004421 0.1505685 0.11774033 -0.13794397 -0.040668488 0.00956578 0.024301061 0.036681548
0.06630325 0.00880618 -0.08542433 0.081372395 -0.15905954 -0.10067724 -0.03085166 -0.071565434
-0.05340101 -0.13030359 -0.02992751 0.037056014 -0.104847826 -0.0044357395 0.120684735 -0.0067064445
0.015842577 -0.005361614 0.04435816 0.116929516 0.16586004 0.11747817 0.17021725 -0.0033805356
-0.15455168 -0.05815202 0.14351112 0.006632346 -0.060351323 -0.094934456 -0.1318825 -0.11312819
0.0036095122 0.07145402 0.10326021 -0.13927568 0.094351195 -0.114703484 -0.010324102 -0.06195135
-0.009715432 -0.0012884571 -0.153854 -0.11490131 0.00966294 -0.00060574623 -0.047600646 0.09798556
-0.14740647 0.018281424 0.18326695 -0.081172794 0.19382071 0.10726651 -0.16024888 0.15033023
0.029644316 -0.07355469 0.18114108 -0.08281346 0.016454304 -0.035454713 0.11951132 0.04302328
0.077582814 0.057455044 -0.042412624 -0.036466792 -0.13804032 0.08175173 0.12555882 0.10750279
-0.12817185 -0.0013451321 -0.12586385 -0.10301466 -0.10675111 0.047448456 -0.09729695 -0.0035360833
0.004679517 0.1061121 -0.12869352 -0.11893522 -0.101922035 0.11104253 -0.06660425 0.14833252
0.06797725 0.026798468 0.00621181 -0.026400443 0.024746219 -0.031849276 0.0033978387 0.02233536
-0.12197264 -0.07666233 0.14938164 -0.13265158 -0.0070888856 0.17532429 0.06403073 0.009767326
-0.13410003 0.08355149 -0.11424187 -0.038857177 -0.057283375 -0.023053935 0.007831038 0.14127576
0.026817322 0.15945217 0.10551155 -0.096630834 0.088712014 -0.1205522 -0.06719833 0.059507776
0.053875636 0.13007769 -0.04088432 0.007047022 0.09069647 -0.15590934 0.12169769 -0.13813569
0.004418151 -0.025905378 -0.085979596 0.027189447 0.14336263 -0.048477 -0.10220435 -0.062358588

conv1.bias f4 [32]
00000000: 4705 fcbd 6b50 a9bc f3ce 2f3e 2331 0bbe
00000010: 17b0 0bbd 1f83 2d3e 9d50 0e3b 2249 eb3d
00000020: 8025 cbbd 753e 88bd 04b2 b2bd ad31 1a3e
00000030: e5cc 583d 89fd 08be d4b1 7c3d ee1e ea3c
00000040: 6346 03be 74a9 c3bd 93e9 6fbd 1387 273e
00000050: 7020 16be 0720 c1bd 5c71 72bd e9b5 a8bc
00000060: 7689 aa3d dcf1 bbbc 852c f63b bfba 8bbd
00000070: 7916 a0bc bd71 adbd e00c 3f3e 1a94 03be
-0.12305694 -0.02066823 0.17168789 -0.13592963 -0.03410348 0.1694455 0.002171553 0.11488558
-0.09919262 -0.06652538 -0.0872536 0.15058012 0.052929778 -0.13377966 0.061693028 0.028579202
-0.12819819 -0.09553805 -0.058572363 0.1636012 -0.14660811 -0.09429937 -0.05919014 -0.020594554
0.08327 -0.022942476 0.0075126314 -0.06822728 -0.019541966 -0.084689595 0.18657255 -0.12849465

conv2.weight f4 [32, 32, 3, 3]
00000000: 12ec 98bd c13a a8bd 0186 43bd f22f 143c
00000010: bb11 873b 364a c6bd 395b 90bc 9c70 a43c
00000020: 2fa7 8bb9 3cc8 4c3d f17b 7939 993f 16bd
00000030: ea9e 2e3d a9c1 84bc c39e 113d c97f 27bc
00000040: a82f f63c 46b9 713d f3ba fc3c 8799 8fbd
00000050: f43e 41bd ca92 20bd b94f 2fbd de10 703d
00000060: c7fa 49bc c179 0bbd 01c5 72bc 684a 03bd
00000070: 0c13 c73c 5120 4cbd 4b47 64bd c630 6ebd
00000080: 10dc de3c ed98 e03c 8c53 16bd ec18 8d3c
00000090: 5e9e bc3b dab8 bbbc 2c8e f5bb 47a6 0bbd
000000a0: 8c78 1fbd 60d5 083d 10ba 9dbd 9105 cfba
000000b0: a5ab 183d 02b0 45bd 3a57 073d 425d 2c3d
000000c0: b7ef f0bc e166 cabc 08cf aa3c f799 40bd
000000d0: f352 b43c 1ff3 563c 727b 2b3d 524e 4bbd
000000e0: c3f0 51bd 133d aa3c 7bab 053c d7f5 93bd
000000f0: 499c 41bd de81 a4bd 5135 99bd b78f a2bc
00000100: db09 603d 3f46 bcbb ce4b 1a3d 1af5 7d3d
00000110: 7d3f 163d 0e98 59bd 5b24 133d bc70 163d
00000120: a960 1f3d f4a4 a3bd 0a3d 823c 1425 bb3c
00000130: cf90 bcbd 88b3 c4bc 662b 7e3c 8072 b4bd
00000140: 2dcb 90bc 397e 023d f3d6 ac3c fdc0 823d
00000150: 95ee 633d 6e17 6d3d fcd4 6bb9 243d 673d
00000160: 636b 43bd cd2d cabc 3cb9 b0bb dd00 11bc
00000170: 49f3 7f3d 7b2d 193d 7a14 443d 7b00 453d
00000180: 70d4 03bd c05c 6f3b b440 7c3c 5b10 9d3c
00000190: 06d6 0e3d be81 9ebc 1371 84bc 3a43 553d
000001a0: 58d0 55bc 6145 36bd 9d8a 1c3d e3f4 1e3d
000001b0: 6e78 0bbd d83a 53bd da39 a4bd 0653 6ebd
000001c0: e209 73bc 5c3e 77bd b591 233d 99f9 a5bd
000001d0: c8d1 24bd 44a3 213b f122 063d d4a9 583d
000001e0: cb54 1e3d 23c3 dc3c f121 b7bc fcbf 2cbd
000001f0: 6a5f 51bd eae1 043c 52d7 413d e258 bebc
00000200: f16a 83bc e686 4dbd 9573 063c 30ed d43c
00000210: 7de9 88bd 9377 52bd 46e7 043d f03d c83b
00000220: 730e 76bc ea8a 0abb 0014 77bc c816 4dbd
00000230: 45bb 82bd f93d 0e3d e753 4cbc 7ba4 d2bc
00000240: 6ba0 80bc 604b 19bd 6a83 b9bc f58c 80bd
00000250: 352b 013d 68a3 7d3c 519b 4abd f6a9 16bd
00000260: 2361 8f3c 6847 adbc 62a5 933c 55b9 a83c
00000270: c4df 14bd 26f7 993c 07f2 263c 85c5 4f3d
00000280: 5f73 8fbc 14df 05bc a9ec 7b3d b7e2 27bd
00000290: 3389 ea3b b9aa 903d 92bf 8abc 761a 7e3d
000002a0: b424 8a3d fe69 863d c40e d83a ac79 703d
000002b0: 43c2 a9bc 0b24 85bc 6d0d d53c a0ce 813c
000002c0: 54fb 0e3d 5fd7 673d e64f 15bd 2f99 ff3c
000002d0: 59c6 c53c 790d 233d 8d50 213d 3a1f adbc
000002e0: 676d 2cbd 516a 5b3d 54b3 0fbd 4837 1c3d
000002f0: 1d2a 61bd 72f5 45bb 0c1c b63b 8faf 38bb
00000300: a721 513c c6c4 b53c d0d1 afbc 653f a63c
00000310: 74f6 743d 3645 5fbd 69de b23b c8cc 81bc
00000320: 795a 6c3d 3569 743d 7ef4 c53b 4fae 54bc
00000330: a387 f1bc 23ee 443d f7c6 2d3b 9c44 783d
00000340: 45cb 1f3d 9268 663d 8f17 5a3d 9d2b 03bd
00000350: f69f b73c 171f 90bc 391a 113d adc0 6cba
00000360: da90 313a 27af 32bd 7b9d 51bd 4fb7 bb3c
00000370: 5cae 843c 4b96 3b3c cafd 373d a46c 92bc
00000380: 70fe fa3c e6b5 f4bc cadb 733c 5086 37bc
00000390: dcf5 3e3d 346c 693d 9413 663d 418f 093c
000003a0: 509c 273d d3f1 58bd 17fd f2bc b8a8 1a3b
000003b0: 868e 86bc 9d82 5ebd da1a 46bd b4fd 71bd
000003c0: 7f3d 93bd 0085 afbc 17fe 163a e27f a43b
000003d0: 9941 41bd d5b0 96bd ac31 6ebd fe9c 27bc
000003e0: f8b9 e23c 8b00 c0bc f8f2 f7bc 51fb fdbc
000003f0: be0c 41bc 6ac4 86bd 0c4e 6cbd d448 363d
-0.07466902 -0.082143314 -0.047735218 0.009044634 0.0041219867 -0.09682123 -0.017621623 0.020073228
-0.00026636707 0.049995646 0.00023792662 -0.036681745 0.04263202 -0.016205626 0.035551798 -0.010223337
0.030052021 0.05901458 0.030850863 -0.07011705 -0.047179177 -0.03920249 -0.04280064 0.058609836
-0.012327856 -0.03405166 -0.014817477 -0.03205338 0.024301074 -0.049835507 -0.055732053 -0.058151983
0.027204543 0.02741667 -0.03670077 0.017223798 0.0057561835 -0.022915293 -0.007493755 -0.03409412
-0.03893332 0.033406615 -0.07701504 -0.0015794506 0.037273068 -0.048263557 0.03304217 0.042081125
-0.02941118 -0.02470726 0.020850673 -0.047021832 0.02201221 0.013119488 0.041865773 -0.04963524
-0.051255 0.020781076 0.00815856 -0.072246246 -0.047268186 -0.08032583 -0.074808724 -0.01984392
0.0546969 -0.0057456787 0.03766995 0.062001325 0.03668164 -0.053123526 0.035923343 0.036728606
0.03891054 -0.07990447 0.015898246 0.022844829 -0.092073075 -0.024011388 0.015513277 -0.08810902
-0.017675007 0.031858657 0.02109859 0.06384466 0.05564745 0.057883672 -0.0002249069 0.056454793
-0.047709834 -0.024680043 -0.0053931754 -0.0088503035 0.062487874 0.03739689 0.04787109 0.04809616
-0.032185018 0.003652379 0.015396286 0.019172838 0.034872077 -0.019348975 -0.0161672 0.052066065
-0.013050161 -0.04449976 0.03821813 0.03880776 -0.034050398 -0.05156979 -0.08018847 -0.058184646
-0.014833899 -0.060362205 0.03993388 -0.081042476 -0.040239125 0.0024663964 0.032748166 0.052896336
0.038655084 0.026948517 -0.022355052 -0.042175278 -0.051116385 0.008110503 0.047324486 -0.023235742
-0.016042205 -0.050177477 0.008206268 0.025992006 -0.06685159 -0.051383566 0.032447122 0.006110899
-0.015018093 -0.0021139928 -0.015080452 -0.050070554 -0.06383375 0.03472707 -0.012471176 -0.025713196
-0.015701493 -0.0374254 -0.02264567 -0.062768854 0.031535346 0.015480854 -0.049464528 -0.03678318
0.017502373 -0.021152213 0.018023197 0.020596186 -0.036346212 0.018794607 0.01018954 0.05072548
-0.017511068 -0.008170862 0.061504994 -0.040987696 0.0071574687 0.07063813 -0.016937051 0.062036954
0.06745282 0.06563185 0.0016483893 0.058709785 -0.020722514 -0.016252538 0.026007378 0.015845597
0.034907654 0.05660188 -0.03645315 0.031200973 0.024142431 0.03980777 0.03938346 -0.021133054
-0.04209652 0.053568188 -0.03508313 0.038138658 -0.054971803 -0.0030206111 0.0055575427 -0.0028180813
0.012764371 0.022188555 -0.021462351 0.0202939 0.05980535 -0.054509364 0.0054586423 -0.015844718
0.05770347 0.059670646 0.0060411086 -0.0129810115 -0.029483622 0.048078667 0.0026516297 0.060612306
0.039012212 0.05625207 0.053245123 -0.032024015 0.022415143 -0.01759295 0.0354254 -0.00090313965
0.0006773599 -0.04362407 -0.051175576 0.022914557 0.016196422 0.011449407 0.044919766 -0.01787407
0.030638903 -0.029871892 0.014883945 -0.011201456 0.04662119 0.056987956 0.056171015 0.008395971
0.040920556 -0.052964997 -0.029661698 0.00235991 -0.016425382 -0.05432378 -0.04836545 -0.05907984
-0.07189464 -0.021425724 0.0005759908 0.0050201276 -0.0471817 -0.07357947 -0.05815284 -0.010230301
0.027676567 -0.023437759 -0.030267224 -0.031003626 -0.011782823 -0.06580432 -0.05769162 0.044503048

conv2.bias f4 [32]
00000000: a5cc 9abd 3df4 2abc 8f5f acbc 8745 903d
00000010: 9285 d43b 4656 77bd 1207 aabd 4d67 debc
00000020: ec81 433c de68 013d 1be0 0cbd b1e8 6a3d
00000030: 1d32 cebb e1b1 06bd d4eb 8d3d 6065 7ebd
00000040: e4eb ab3b c138 f43c f29c d1bc 7bfd 9f3c
00000050: 5697 15bd 23a2 4c3d 345a a43d 99c2 8f3d
00000060: 918d 4f3d b2f1 52bd 2ff7 abbc 9ec0 b23b
00000070: 95ce b4bc 79c1 3ebd 424a 8a3d d2b0 11bd
-0.07558564 -0.0104342075 -0.02104166 0.07044511 0.0064856494 -0.06038501 -0.0830213 -0.027148867
0.011932831 0.03159415 -0.03439341 0.057350818 -0.006292595 -0.032884482 0.06929746 -0.062108397
0.005246626 0.029812219 -0.025587533 0.019530049 -0.03652128 0.049959313 0.080250174 0.070195384
0.050672118 -0.05150003 -0.02099189 0.0054550907 -0.022071162 -0.04657123 0.06752445 -0.03556902

conv3.weight f4 [32, 32, 3, 3]
00000000: 892e e53a 1b72 473d 9954 10bd 89d7 4abc
00000010: 0d9f 153d 0600 38bc 62a2 fabc c02c 0e3d
00000020: 00ee 09bd cccc a13d 8094 a13d 605b c13c
00000030: e5d3 993c 44fc 94bc 62ec b43c 19c6 3abd
00000040: c4ae 8dbc a0fb 333d cb59 5c3c 5059 623d
00000050: f8e1 723d bef2 523d 4bd1 ef3c 5842 a8bc
00000060: 223c 66bd dc7b 593d 3a8c 933d d71b 803d
00000070: def7 c1bc 51f7 993d dd97 79bc f3f5 0c3d
00000080: eb2d 843d bab8 1bbd 6b69 10bd 5192 803d
00000090: 8731 39bd 226f 493d a775 253d f8d3 8c3d
000000a0: 5476 223d 7b91 563b 774c 583d 022b 3d3d
000000b0: 3d90 e4bc a1e2 9d3c 41b7 b3bc 118e 8f3d
000000c0: 125a b5bc d8b7 9b3b aa55 3bbc 692b 463d
000000d0: c2ea 233d 04f0 9e3d 3b28 123d 1312 edbc
000000e0: 87cc 913d 20ba 3dbc d885 623d ffc3 8a3c
000000f0: 6c08 023d 0175 ddbc ec01 d43c bb67 863b
00000100: f787 33bd cb44 593d ee65 f5bc c9d1 1bbd
00000110: e76a 5d3d fd75 70bd a4f3 703c 411e 463d
00000120: d1b6 cabb 98a9 f0bc 1391 5abc a062 513b
00000130: ef81 b63c 86ac 983d 8a5c 613d 6062 37bb
00000140: 1ba7 8e3c 019b 66bd 2bc0 243c 3454 4d3d
00000150: 750e 01bd adaa efb9 8c50 383b 438b 80bd
00000160: 7fbc 673d c654 aa3c 23ee 283d 3d4d 6fbd
00000170: 601b 6dbc 47c2 12bd 55c6 1b3c 8ee7 46bc
00000180: 3e78 6abd ad30 1e3d a093 523d ae9f 453d
00000190: 5234 fc3c c950 4a3d b839 60bd 514e 3bbb
000001a0: 2e9e 15bc 9442 5fbc bcc9 0b3c 14c1 093d
000001b0: bdb4 60bd bf78 66bc 0da8 90bc e655 20bd
000001c0: e53e 36bd aab7 c7bc ad83 84bd 271a 46bd
000001d0: 0fc7 23bb 8455 59bd 296d 46bd 1d76 5e3d
000001e0: 920f 36bd 766a 513d b657 983c 63f1 29bc
000001f0: 8055 6a3d b24d ffbc 9178 f13c c877 5d3d
00000200: 6fe2 8e3d 38eb 66bd 6a26 833c 15dc 573c
00000210: d96c 45bd d3c6 523d ab9a 023c 08a1 163d
00000220: 4a64 5cbc e6d7 f1ba 8927 b13c 9999 e03c
00000230: 6e3e 613d 693a b23c 5644 783d b05c 13bd
00000240: 150f 163d afad a73d 1ca1 5c3c 6ab6 f9bb
00000250: 7fa7 c43d 82ba febb 97c5 53bc ff2d 87bc
00000260: 827d 563d be60 df3c 4810 30bd 94d4 443d
00000270: 152e 8e3c 440a a43c 0237 58bd d031 88bd
00000280: 0c88 72bd b852 eebc f364 633c 89b2 ab3d
00000290: 4eff 683d ea5b 2d3d d5b8 e33d af39 af3d
000002a0: 766b 373d 7df3 bf3b fccc 1d3d 9f7f 41bd
000002b0: 0ea4 07bd 85b3 8a3d e1a9 2dbd 66cc e83c
000002c0: 28c4 353d 5dbf e93c cffa 1d3d a072 3f3d
000002d0: bc7e fc3c daa5 bf3b 9cfb 2839 af3a 6ebd
000002e0: 45e2 233d 30e7 1c3b 0e51 f73b 83cd 94bb
000002f0: b38a 543d 187e b23c 9c3b a13d 6128 8e3d
00000300: 6fe6 2f3d dd62 fe3c 1554 603d 70b7 23bc
00000310: 1d63 973d 91a2 923d f75b 933c eba2 d03b
00000320: ea7d 053d b75a 4d3d ce52 343c 2d6b dabc
00000330: 5c5b 99bc 48ff 88bd bb0b c0bb e745 0fbd
00000340: 9157 ea3c 7399 c43c fa09 8c3d 6c69 02bc
00000350: 90fb 9f3b 48ba c43b a11b 95bc 5188 9bbc
00000360: d3fa 41bc 6c9b 35bc 640e 8b3c f6a2 1d3d
00000370: 6d27 dd3c 4d70 703d 9d3c 483c ef4e 123d
00000380: 63c7 13bd d937 253d 5690 5c3d 44f7 e03c
00000390: 386d 10bd c16b 00bb 28dd 4fbd 4770 55bd
000003a0: c8e6 253d b278 a73c 3355 4f3d 59df 313d
000003b0: aa07 ed3a 6cf6 fa3c f6e0 c3bc cd71 20bd
000003c0: b8c1 ed38 0412 c6bc b2f0 8d3d f3f6 40bd
000003d0: 2170 873d 9d61 5d3c ac53 8d3c e1a0 903d
000003e0: f5fa 163c adc2 48bc a72a 403d ca6a d43c
000003f0: d8af 85bc e134 953c 99fc 55bb 40ec 443c
0.0017485182 0.048692804 -0.03523693 -0.012380489 0.036528636 -0.011230474 -0.030595008 0.034710646
-0.03367424 0.0790039 0.07889652 0.023603141 0.018777797 -0.018186696 0.022085372 -0.045599077
-0.017295249 0.04394114 0.013449143 0.055260956 0.05929753 0.05150103 0.029274603 -0.020539448
-0.05620969 0.053096637 0.072044805 0.0625531 -0.023677763 0.07517875 -0.015233961 0.034414243
0.06454071 -0.038017966 -0.035256784 0.06277908 -0.04521325 0.04917825 0.040395405 0.06876367
0.039663628 0.0032740522 0.052807298 0.046183594 -0.02790081 0.019273104 -0.021937968 0.07009519
-0.022137675 0.0047521405 -0.011433998 0.048381243 0.040018804 0.07760623 0.035682898 -0.028939283
0.071190886 -0.01158002 0.055303425 0.016939161 0.031746313 -0.02703333 0.025879823 0.004101721
-0.043830838 0.05304412 -0.02995583 -0.038041864 0.05405703 -0.058706272 0.014706526 0.048368696
-0.006186344 -0.029377744 -0.013340252 0.0031949654 0.022278754 0.07454781 0.055019893 -0.002798222
0.017413666 -0.056300167 0.010055582 0.05012913 -0.031507928 -0.00045712796 0.0028124182 -0.06276562
0.05657625 0.020792376 0.04124273 -0.05842327 -0.014471859 -0.03582981 0.009507735 -0.012140168
-0.057243578 0.03862064 0.051410317 0.048247986 0.030786667 0.04939345 -0.054742545 -0.0028580616
-0.009131951 -0.013626713 0.008531984 0.0336314 -0.054859865 -0.014066874 -0.017658258 -0.03914442
-0.044493575 -0.02437957 -0.06470428 -0.048364785 -0.0024990474 -0.05306007 -0.048443947 0.05431186
-0.044448443 0.05112692 0.018596511 -0.0103724925 0.057210445 -0.031164978 0.029476436 0.05406931
0.069767825 -0.056376666 0.016009528 0.01317503 -0.04819951 0.051459145 0.007971446 0.036774665
-0.013451645 -0.0018451184 0.021625297 0.027416991 0.05499118 0.021756368 0.060612045 -0.035977066
0.036635477 0.081874244 0.013466146 -0.0076206224 0.0960226 -0.0077736983 -0.012925527 -0.016501425
0.052365787 0.02726781 -0.042984277 0.048054293 0.017355958 0.020024426 -0.052786835 -0.06650126
-0.059211776 -0.029092178 0.013879049 0.08383662 0.056884103 0.042323984 0.11119238 0.08555924
0.044780217 0.0058578835 0.038525566 -0.04724085 -0.03311544 0.06772522 -0.042398337 0.028417777
0.044376522 0.028533632 0.038569268 0.046740174 0.03082215 0.0058486285 0.0001611546 -0.058161434
0.04001071 0.002394151 0.0075475043 -0.0045411005 0.051890086 0.021788642 0.07872698 0.069412954
0.042944368 0.031053001 0.054767687 -0.009992465 0.07391951 0.07159913 0.017988188 0.0063670776
0.032590784 0.05013534 0.01100607 -0.026662434 -0.018720321 -0.06689316 -0.0058607734 -0.034978773
0.028606208 0.023998952 0.068378404 -0.007959705 0.0048822835 0.006003652 -0.018201651 -0.0189859
-0.011839586 -0.011084419 0.016974635 0.03848549 0.026996339 0.05870085 0.012221483 0.03571981
-0.036078822 0.040336464 0.053848587 0.027461655 -0.03526041 -0.0019595476 -0.05074802 -0.05210903
0.040503293 0.020443294 0.05061836 0.04342589 0.0018083949 0.030635081 -0.02391098 -0.03917103
0.000113371236 -0.024178512 0.069306746 -0.04711051 0.06613184 0.013512042 0.017251812 0.07061935
0.009215106 -0.012253446 0.046915676 0.025929827 -0.0163192 0.018213691 -0.003265178 0.012019217

conv3.bias f4 [32]
00000000: 2611 28bd 677b 3b3c 2c07 3cbd 090d 9fbd
00000010: dd4c 04ba 6102 283c a8b1 b2bd 3e07 cb3d
00000020: 57a0 bd3d fa36 f03c 41cb 18bd 1774 debc
00000030: 9329 00bd 48d7 f43d 41f8 a8bd 0300 87bc
00000040: 7c31 343b b53b 7fbc 5d7c 0cbd bbf4 d8bc
00000050: 97a4 1b3c 2bea 4c3d 83e7 9dbd 5e21 343d
00000060: bce2 60bc 2526 cfbc d4c1 5cbc bb1d 303c
00000070: 0286 273d 519b e73c 15c5 bdbb f181 4f3d
-0.04103198 0.011442996 -0.045905277 -0.07766158 -0.0005046854 0.010254473 -0.087252915 0.09913491
0.09259098 0.02932309 -0.037303213 -0.027154965 -0.03128965 0.11955124 -0.08250476 -0.016479498
0.0027495315 -0.0155782 -0.03429829 -0.026483884 0.0094996905 0.050028007 -0.07710173 0.043977134
-0.013725933 -0.025286743 -0.013473947 0.010749276 0.040899284 0.028272303 -0.0057913163 0.05066103

conv4.weight f4 [32, 32, 3, 3]
00000000: 8dcd 153c 98b5 87bc bb3b 0bbc b64f 1f3d
00000010: 5965 a13c 896f 5fbd 7d75 d63c f37c eebc
00000020: 66b6 e2bb ebf7 a8bb be5e f4ba eec9 603b
00000030: bb6b 6b3c 1dd1 4fbd 887b 58bd 8e14 2d39
00000040: 890e 0dbd ab6d 7bbd 6f64 42bd 9d7a 17bd
00000050: a1cd 6bbd a75a f13c e33a 733c 7f99 99bd
00000060: 6259 7239 f963 3ebc 8dc8 63bc da87 bd3c
00000070: 7bd3 c7bc ce3e 6b3d 0023 e03c 4848 69bd
00000080: 6bd3 273c d40a c43c 9178 ffba 8fa8 933c
00000090: 3887 973c 4536 1d3d f30c 45bd 92db 053d
000000a0: 7ba7 843d 1ca6 f43c d799 f7bc 3626 1d3d
000000b0: 1825 623b a2ae 23bc 72fd 413d 0108 293d
000000c0: c75c 233d 877b e4bc 0e15 1cbd f07f 673c
000000d0: 4311 703d b2f1 e4bc 7b2c 273d 07a5 eb3a
000000e0: 4467 8abc 6631 e1bc 7a2e 393d bf86 e53c
000000f0: 69d6 febc 03f4 813d ab35 1ebb 5f41 a7bc
00000100: a63c e23c 72d0 4c3d e74a b53d 74ff 0dbc
00000110: e418 9f3c ece0 6b3d a057 583d a774 1abd
00000120: 3def 9fbc 727c 6bbc 10e7 683b 185d 803b
00000130: f5ea 7d3d 880b 2fbd 9852 923d 98f1 903b
00000140: 0f6e 603d 9531 39bd 2a29 60bc 1cfc 6dbd
00000150: bf53 34bd 0708 8e3c c501 0e3d 45fb ecbb
00000160: c7e5 e6bc 6364 2bbd ff02 9cbd 2bcf 423c
00000170: 52a0 43bc 8be7 09bd 729f 20bc 235b 25bc
00000180: 09bc 18bd e8d7 9ebd d4c3 fcbc f2bc cd3c
00000190: 63b0 953c 913d b53c 25be 34bd 9366 7abd
000001a0: a797 7dbc 33d0 67bd 7fa6 e73b 7d28 b83c
000001b0: e6d8 1fbc 14e7 32bd fc1b 623c 770c 83bc
000001c0: 97e9 d1bc cedb 733d ccbb adbc e6c5 60bd
000001d0: 2438 463c b992 893d 3890 afbb c37e e13c
000001e0: b551 d43c 40c7 203d 4cd9 a83a 1c5b ccbc
000001f0: 7e41 c33c 564b 1f3d 95f7 4dbd 5792 c23c
00000200: dcfd 883b 905a 8bbd e22d 0bbd b812 dbbc
00000210: b851 8dbb 2b42 413c 6d81 d83c b1a5 b93b
00000220: 9cbd f6bc 318d a0bc b5ab acbb 37cf d83c
00000230: 7a17 85bd 4bad 84bc 8bf9 713d e0a3 4bbd
00000240: 1bdb fd3c 2712 213d 3524 423b 784d 613d
00000250: f98f 1d3d 2375 2fbd 863c 383d 9eed 593d
00000260: 2c66 3ebd 4de1 763d 2656 a8bc 7dae 9c3a
00000270: 3966 ce3b a70c 1d3c c63a 7b3d ce4b 7e3c
00000280: c64e 6d3d be2b 26bd ccf1 55bc 3c0c a6bd
00000290: 8dac 82bd 1f09 463d a850 52bd c662 2f3c
000002a0: af76 7abc 0701 3e3d 5ca9 96bc 0fe1 043c
000002b0: a69a 723d 7ea8 b8bc 5ce2 843d ddb2 de3b
000002c0: ef75 cb3c 1350 4fb9 ffe7 57bc f4bf 2dbd
000002d0: 3934 39bd dc68 87bd b0d7 9cbc 5c73 4c3d
000002e0: f414 b0b9 6fab 553c 4d19 65bc 5de8 d5bb
000002f0: 3c10 213d a73a 41bd afb1 ea3b 3fb2 21bd
00000300: c7f7 c3bc 6103 613d 2fde 1f3d 1634 bdbc
00000310: cb5a 1a3d 5167 3b3d 00cf 62bd 0605 183c
00000320: 897b 8abd cde9 39bd 159b 8bbc e47e 14bd
00000330: 2905 73bd f400 84bd 6817 2dbd 6a77 023c
00000340: 528b 10bb 2f4e 493d 21cd 753d f01c 2cbc
00000350: f5a7 3c3c 0618 1dba 9460 0aba 9990 9b3c
00000360: 7af8 fabc c92f 883d c211 903c 3c1b ed3c
00000370: 7446 d53c a2b6 24bd 7847 973b 62a5 2fbd
00000380: 369d 12bd 01f3 033d 07ba 37bd 9df2 2d3d
00000390: 537f 0c3d 8960 cb3b 3158 c4bb 1823 53bc
000003a0: 365c 263c 50a1 793c 6918 4fbc f8c8 83bc
000003b0: 2fc7 03bc 233c 02bd 1233 2abd d219 3cbd
000003c0: c390 2fbd 0a0d 0c3d 426d f53c 10fb a1bc
000003d0: 925a 983d 2620 48bc 28f0 713c 8b3e a23d
000003e0: 7cc1 093d 3728 8cbc 0f12 173d 075c fcbc
000003f0: 3d64 f33c 7804 eebc fd64 6f3d 0833 d2bb
0.009143245 -0.016566083 -0.008498128 0.038894378 0.019701647 -0.054549728 0.02617907 -0.029112315
-0.0069187162 -0.0051565072 -0.0018643958 0.0034300047 0.014368947 -0.050736535 -0.052852184 0.00016506223
-0.03443769 -0.061383884 -0.047459062 -0.036982168 -0.05756915 0.029462172 0.014845583 -0.0749998
0.00023112216 -0.011620515 -0.0139027955 0.023136068 -0.024392834 0.057432942 0.02736044 -0.0569537
0.010243277 0.023930945 -0.0019490888 0.018024711 0.018497095 0.038381834 -0.048108052 0.0326801
0.06477257 0.029864363 -0.030224724 0.03836652 0.0034506973 -0.009990366 0.047360845 0.0412674
0.0398834 -0.027890934 -0.038106017 0.014129624 0.058610212 -0.02794728 0.040813904 0.0017978259
-0.016894944 -0.027489375 0.04521034 0.028018354 -0.031108098 0.0634537 -0.0024140875 -0.020416914
0.02761681 0.050003476 0.08852177 -0.008666862 0.019421048 0.05758755 0.05281794 -0.037708905
-0.019523257 -0.014372932 0.0035538115 0.0039173476 0.06199165 -0.042735606 0.0714466 0.0044233315
0.05479246 -0.0452133 -0.013681689 -0.05810176 -0.04402518 0.017337812 0.034669656 -0.007232102
-0.028185738 -0.041843783 -0.07617759 0.011890213 -0.011940079 -0.033668082 -0.00980364 -0.0100925295
-0.0372887 -0.077560246 -0.030855097 0.02511451 0.018272584 0.022124084 -0.04412665 -0.06113298
-0.015478051 -0.05659504 0.0070694084 0.022480244 -0.009756302 -0.043677405 0.013800617 -0.015997155
-0.02562408 0.059535794 -0.021207713 -0.05487623 0.012098346 0.06717438 -0.0053577684 0.027526265
0.025917867 0.03925252 0.0012882142 -0.024945788 0.02383494 0.038890205 -0.05028494 0.02375142
0.004180653 -0.06804383 -0.033979304 -0.026742324 -0.00431272 0.011795561 0.026428903 0.005665504
-0.03011971 -0.019598575 -0.0052694925 0.026465995 -0.064986184 -0.016195914 0.059075873 -0.04971683
0.030988267 0.039323952 0.0029623632 0.05500552 0.03846738 -0.04283632 0.044979595 0.053205125
-0.046484157 0.060273457 -0.020548891 0.0011953857 0.006298807 0.009585536 0.061335348 0.015521003
0.057936452 -0.04056906 -0.013058137 -0.08107802 -0.06380568 0.048348542 -0.05134645 0.010704702
-0.015287085 0.0463877 -0.018391304 0.008110299 0.059229515 -0.02254128 0.06488487 0.0067962245
0.024836509 -0.00019770888 -0.013177871 -0.04241939 -0.04521582 -0.06611797 -0.019145817 0.049914703
-0.00033584947 0.013041361 -0.013983083 -0.006527944 0.039322123 -0.047175076 0.007162295 -0.03947663
-0.02392186 0.054934863 0.03903025 -0.023096126 0.037684243 0.045752827 -0.05537319 0.009278541
-0.06761844 -0.045388985 -0.017041722 -0.036253825 -0.059331093 -0.06445494 -0.04225865 0.007963041
-0.0022055698 0.049146827 0.06001008 -0.010504946 0.011514653 -0.00059926545 -0.00052786735 0.018989848
-0.030636061 0.06649739 0.017586593 0.02894365 0.026034571 -0.040213235 0.004616674 -0.04288233
-0.03579446 0.03221417 -0.044855144 0.042467702 0.034301113 0.0062065762 -0.0059919585 -0.012886785
0.010153821 0.015236214 -0.012640097 -0.01608704 -0.008043095 -0.031795632 -0.04155261 -0.04592306
-0.042862665 0.034192123 0.029959325 -0.019773036 0.0743915 -0.012214696 0.01476673 0.079220854
0.033631787 -0.01710902 0.036882456 -0.0308056 0.029710883 -0.029054865 0.05844592 -0.006414775

conv4.bias f4 [32]
00000000: df87 983d ae06 4a3d 9970 ac3d 4cc9 47bd
00000010: e335 963c 355a 49bd 6fd4 8c3d 2846 78bd
00000020: 53c3 b03d eb2c 22bd ba1a 1ebd e27f 263c
00000030: da10 d5bd 1a9e 27bb f517 b9bb 2010 973d
00000040: d852 543b e6e0 993d 3ef3 21bd 76dd 9c3d
00000050: d6ad 44bd 87a3 c7bb 53ce 783d c074 c6bd
00000060: ddb4 9b3d bb61 87bd cf89 963d dc5c 33bc
00000070: 200c a33d b2a4 a73d 1e66 0bbd 5ce1 82bd
0.0744779 0.049322776 0.08419914 -0.048775956 0.018336242 -0.049158294 0.06876456 -0.06061378
0.08631005 -0.03959362 -0.038599707 0.010162326 -0.10403605 -0.0025576414 -0.005648608 0.073761225
0.0032398012 0.07513599 -0.039538614 0.07659428 -0.048017345 -0.006092492 0.06074364 -0.09690237
0.07602856 -0.066104375 0.07350504 -0.010947432 0.07961297 0.0818571 -0.034032933 -0.0639064

conv5.weight f4 [64, 32, 3, 3]
00000000: 5811 023d e86c edbb 854b 0dbb 80af 303d
00000010: 2481 fb3b 333c db3c 1440 a9bc 2d34 7e3c
00000020: 8992 2c3c 6531 43bc dcf8 86bb 579a 053d
00000030: 8732 4abd 65b7 c4bc 5bce f63b 6ef7 01bd
00000040: 94e7 0a3b 9d46 843d 1b5d 8a3d 959a 86bc
00000050: 7e76 da3c b985 43bb 1081 d33a c644 4cbd
00000060: f6e8 933c 61a1 85bd 1f97 f1bc 606a e8bc
00000070: 0a30 f43c 3b36 76bc 5450 26bd b5a6 ee3c
00000080: b8c2 1dbd bdf4 813d ed06 c93c 0178 e03c
00000090: 37f9 8bbc 5e9a 4dbd e4b3 303d 20d1 88bc
000000a0: 564c 693d ce38 b5bc 3a86 9fbb 8e97 083d
000000b0: e0aa a63d 8a1f 80bc 0bea 073d 822b 603d
000000c0: d053 64bd 959b 753d 6435 d33c 0afe 1fbd
000000d0: 35bd aa3b 65d0 163d 53b4 313d 1ba9 75bd
000000e0: 1c94 423c 21b1 153d af3c 7fbd b74f c5bc
000000f0: dd66 803d c5b2 c7bc 3d5e 8abd 3160 25bd
00000100: a70e 9abd ee80 133d 922c 36bd 74ee 9bbd
00000110: 668a 9ebc 1ad5 86bd 8c8d c53b fcb8 6a3d
00000120: 24f8 c2bc 0f60 503c a33c cdbc 1c83 3e3c
00000130: 1c85 303c c3aa 56bd 3d59 d83d 5905 e93c
00000140: 76bc afbc 2766 ebba b431 653d bd64 b13c
00000150: aa63 10bd da4b 683c 5456 0ebc a4da ecbb
00000160: 9aa7 d7bb 15b3 4e3d ff20 8dbc 9451 393d
00000170: 8f99 fdbc b01a febc b240 0d3d 210b 15bd
00000180: 856c 9d3d 97f4 8c3d 6837 08bc 2ffd 2bbc
00000190: 01db cf3c 109b bd3a fe22 2dbd b9db d5bc
000001a0: aa8a 983d dcd5 3dbc c408 323b 88d7 d83c
000001b0: ac1d 10bc f890 07bd d450 79bd 9372 02bd
000001c0: ae0e df3a 80cd d8bd 5885 2c3c d874 31bd
000001d0: f17b b1bd f874 11bc b6c7 b2bb 7e97 fbbc
000001e0: e6f0 1cbd a318 a1bd c178 b3bc e75d 39bd
000001f0: ecb8 d6bd 7b05 5ebd c8e7 7a3d 03ed d8bc
00000200: 556b 7c3d bdcd 4dbc 13ef 8d3d b971 903c
00000210: 4c96 233d df53 6abc 102f 14bc 62ed 4f3d
00000220: 8721 9c3c 1065 4ebd 8f04 1dbd 7e77 63bc
00000230: 4957 423c cbf1 b4bd fcbb 88bd 73ed 92bc
00000240: c1bd 0dbc acb3 9cba 9de7 173d d60a 843c
00000250: 7fbe bfbb 1507 2e3d 9bce 463d 6040 6eba
00000260: dc96 babb e4ca 943d 2b4e 04bc 9c7f 94bd
00000270: 398c d73c f703 9b3c bb4d 4abd e230 93bd
00000280: 5cc8 e63b 92b6 93bd 3974 203d 3d84 34bc
00000290: 08c1 44bb 420d 93bc 788e 9f3b 94e7 263d
000002a0: ef00 313c 878a 1b3d c98c db3c e73b 393d
000002b0: 84ed 5f3b fc20 313c e791 793d 2de9 813d
000002c0: 97d9 18bc b935 2e3d 4ce1 6e3d 0bd2 d83c
000002d0: 49df 953d be20 f4bc 297c 42bd fe1d c83c
000002e0: d4f7 72bd 48e6 1cbd c35d 103d 0ca1 a53c
000002f0: b516 81bc 66a4 dabc e72d 8c3c 8eff 5dbc
00000300: 9af7 6cbb 3089 563d 8044 dd3c 7e14 e23c
00000310: 343c 19bc 78e0 403d 341c 1ebd 0ff4 1cbd
00000320: c923 12bd 6dcd 653d 562c 5dbb c227 cbbc
00000330: 2fd3 de3b fd0e acbc ad86 14bd 893f a23c
00000340: a216 70bd f43c a0bd 2798 733b 370f 2abd
00000350: 4f8d d2bd 521f 6cbd f86b 3cbd c69d 9cbd
00000360: 7a63 91bc b084 99bd 878d 44bc d8f3 92bc
00000370: a2c5 ccbc 4f1d 64bd 01b1 51bb 4764 0a3b
00000380: d3d2 d5bd e190 733c 3526 7d3b 2905 afbc
00000390: b265 ab3b 83b2 153d 2796 953d 3480 f73c
000003a0: ff48 283d e2b6 923d 8f1c 1d3d 1171 4bbd
000003b0: 3451 1cbc 162b ea3c 0598 9ebc 5df1 febc
000003c0: fa1d 4d3d 575b 853d 957c f63c 0a7c b03c
000003d0: fd24 3a3c 4f21 ccbc a8b8 08bd 739d 45bd
000003e0: 5fc1 a5bc 59d9 8bbc 3430 2e3d ac93 2f3d
000003f0: 6048 86bc 08e1 083d 8e4c eabc e197 8a3d
0.03175482 -0.0072456487 -0.0021559906 0.04313612 0.007675307 0.026762104 -0.020660438 0.015515369
0.010532984 -0.011913632 -0.004119022 0.032617893 -0.049364593 -0.02401323 0.0075319237 -0.031730108
0.002119516 0.06458781 0.0675604 -0.016431132 0.02666783 -0.0029834344 0.0016136486 -0.049870275
0.01805542 -0.06524921 -0.029491005 -0.028371036 0.029808063 -0.015027578 -0.04060395 0.029132226
-0.038515776 0.06345508 0.024539435 0.027400972 -0.017086608 -0.050196044 0.043140307 -0.016701281
0.056957565 -0.022121813 -0.004868296 0.03334766 0.081380606 -0.015640039 0.033182185 0.054728992
-0.055743992 0.059962828 0.025782295 -0.03906063 0.0052105435 0.036819834 0.04338486 -0.059975725
0.011876132 0.036545876 -0.06231373 -0.024085863 0.062696196 -0.024377236 -0.06756256 -0.04037494
-0.07522326 0.03601163 -0.0444761 -0.07613841 -0.019353103 -0.06583615 0.0060288366 0.05730532
-0.023799963 0.012718215 -0.025053328 0.011627939 0.010773923 -0.052408945 0.10563896 0.028444933
-0.02145217 -0.0017959521 0.055955604 0.021654481 -0.035251297 0.014178241 -0.008687574 -0.0072282124
-0.006581259 0.050463755 -0.017227648 0.045243815 -0.030957012 -0.031018585 0.034485526 -0.036387566
0.07686714 0.06882589 -0.008313991 -0.010497375 0.025372984 0.0014465768 -0.0422697 -0.026105748
0.07448323 -0.011586633 0.002716587 0.02646996 -0.008796137 -0.033097237 -0.0608681 -0.031847548
0.0017017925 -0.10586071 0.0105298385 -0.04332432 -0.08666218 -0.008877985 -0.0054559363 -0.030711886
-0.038315676 -0.07866027 -0.021908166 -0.045255568 -0.1048449 -0.054204445 0.0612562 -0.026480203
0.061625797 -0.012561259 0.069303654 0.017632352 0.039938256 -0.014302223 -0.009044424 0.050763495
0.019058956 -0.05038935 -0.038334426 -0.01388347 0.011861631 -0.08835181 -0.0667648 -0.01793549
-0.008651198 -0.0011955402 0.037086118 0.016118448 -0.0058515663 0.042487223 0.048536878 -0.0009088572
-0.0056942534 0.07265261 -0.008075277 -0.07250902 0.02631198 0.018922789 -0.049390536 -0.07187058
0.0070429277 -0.07212557 0.03917334 -0.011017856 -0.0030022282 -0.017950658 0.0048692785 0.040748194
0.010803445 0.037973907 0.02680053 0.045223143 0.003416867 0.010811087 0.06093016 0.06343303
-0.009329221 0.042531703 0.05832033 0.026467344 0.07317979 -0.029800769 -0.04748169 0.024428364
-0.05931838 -0.03830555 0.03524567 0.020218395 -0.015757898 -0.02668972 0.017111732 -0.0135496985
-0.0036158324 0.052376926 0.027010202 0.027597662 -0.009352732 0.04708907 -0.038601115 -0.03831869
-0.03567866 0.056104112 -0.003374835 -0.024799231 0.0068000774 -0.02100324 -0.03626125 0.019805687
-0.058615334 -0.07824126 0.0037169547 -0.041518416 -0.10280859 -0.057647057 -0.046001405 -0.076472804
-0.01774763 -0.07496011 -0.011996633 -0.01793854 -0.024996582 -0.055692013 -0.0031996372 0.00211169
-0.10440602 0.014866085 0.003862751 -0.021364765 0.005230629 0.036547195 0.0730403 0.0302125
0.04108524 0.071637884 0.038357314 -0.049668375 -0.009540845 0.028584998 -0.019359598 -0.03112095
0.050077416 0.06511562 0.030088702 0.021543521 0.011361358 -0.024918227 -0.033379227 -0.04824586
-0.020233808 -0.017071413 0.04252644 0.04286544 -0.016391933 0.03341773 -0.028600957 0.0676725

conv5.bias f4 [64]
00000000: def3 0e3d da6c 87bd c025 43bd eb3c 58bd
00000010: aa26 67bd efbe 03bd 344d babc 1d4c 8e3d
00000020: 4400 70bd cf0b 743d a0c6 d8bc 1e5f c03d
00000030: 4bf1 303d 20e2 413d c699 70bd 0fa1 45bd
00000040: cc03 893c 9eba 44bd f6b1 1a3d dda0 66bc
00000050: 7351 6cbd bf36 453d 70d5 bd3d 5609 813d
00000060: f5d0 15bd 3d18 3fbd b335 8abd f869 923d
00000070: 31df c3bd 99a7 aabd d24f 983d 3bb5 40bd
00000080: aee7 9bbd 3143 7c3c ead3 a6bc c8e0 0abe
00000090: 1f2e 7e3d 85b8 5dbd d5ce 0e3d 0d4e 703d
000000a0: 4e8d 253d 4ee3 c2bc 0fe6 8cbc 382c c5bb
000000b0: 3b56 b93d 611c 9abc 24fe b13d abca a53c
000000c0: e96e 6ebd 5b0a 7e3d ae7f 62bd a606 e93c
000000d0: 2931 4d3b 3f33 6cbc 7e9f 43bd 0b2e 65bb
000000e0: 8ea1 773d e5a7 763d ceb9 3c3c 9988 1cbd
000000f0: 86e1 4bbd 85c4 853d dc07 b7bb 34ec a33d
0.03490054 -0.06612559 -0.047643423 -0.05279247 -0.056433357 -0.03216451 -0.022741891 0.06948111
-0.058594003 0.059581574 -0.0264619 0.09393142 0.043198865 0.04733479 -0.0587404 -0.0482493
0.016725443 -0.048029535 0.037767373 -0.014076439 -0.057694864 0.048147913 0.092692256 0.06300609
-0.03657623 -0.046653975 -0.067485236 0.07149118 -0.09564055 -0.08332748 0.074370995 -0.047047835
-0.07612549 0.015396879 -0.02036472 -0.1356231 0.062055703 -0.05413105 0.03486522 0.058668185
0.04041796 -0.023790028 -0.017199544 -0.006017234 0.0904965 -0.01881236 0.086910516 0.020238241
-0.05821124 0.062021594 -0.055297546 0.028445553 0.003130982 -0.014416515 -0.047759525 -0.003497007
0.060456805 0.06021871 0.011518909 -0.038216207 -0.049775623 0.06531624 -0.0055856537 0.080040365

conv6.weight f4 [64, 64, 3, 3]
00000000: fa83 2bbb 96c9 c83c 739d 213d 4f19 09bd
00000010: 4594 c8bc cf80 1c3d f76d 5d3c 8b2b e4bc
00000020: b44c 443c 34a3 18bc 4dfa 37bb 6c96 b4bc
00000030: 1441 18bd 3fad 59bd 262e 8ebd 7829 ab3c
00000040: 9cb9 ebbc 15db 4dbc 0a1a fcbb e72d edbc
00000050: 1a38 a53c 3fd9 3e38 cc59 a8bb c6b2 913c
00000060: 36a1 a2bc 4d4b 433b 0855 2cb9 8c56 123d
00000070: 2b86 13bd 5f39 ffbc 1b2f 103d 75e3 6c3b
00000080: a09f 973c c3dd 423c 8903 83bc 0f1b b5bc
00000090: 6feb ccbc 3da8 b53b ad97 2bbd 8910 bfbc
000000a0: 6848 50bc 9dcd 69bd 1890 51ba 968e 233d
000000b0: 9e8c 67bd 5ae4 203c b044 acbc 1898 73bb
000000c0: 67ac d9bc 3077 01bd fbfe bfbc 37a5 7f3c
000000d0: 908c 173d 0a46 2ebd 53b9 7f3c b030 f7bc
000000e0: 56e7 883c 9bee 623d 45db 1dbc 54de 253c
000000f0: fe21 b4bb 4422 ccbb ba6c f53c 029e 18bd
00000100: 76f1 0dbd dcc7 45bc 89ff 0ebd 0379 d3bc
00000110: b191 003d 8525 11bc f462 d03c a590 9c3c
00000120: 5676 683d fdf6 fe3c c68e 39bb 191c 293c
00000130: 4185 09bc 1522 05bd af37 2a3c c701 a03b
00000140: 775a 00bc 5383 b43b 01d9 97bc 2b72 eb3c
00000150: f61a fdbc b239 233d 22e2 e23c 3634 01bd
00000160: d02d 623c 5df0 b4ba df3c 69bd eedb d53c
00000170: 0bca 2cbd 0a65 cb3a a1c2 8fbc 229a a1bc
00000180: 1623 fb3c d0b9 f03b 0e1e ad3c 75cd 363c
00000190: 26c7 bc3c 04d6 c03b b53f dcbc 45fd ccbb
000001a0: 6e50 acbb dd18 5ebc 8f12 65bc c5dc 1f3c
000001b0: a245 9939 4af4 e53c 0b97 ba3b 8ed5 d03c
000001c0: 24ea 4fbc f90f a93c ca42 ceb9 bc68 2fbd
000001d0: 395a c03c ba79 953b ec43 313d eb9e 6c3c
000001e0: cbf2 433d b290 153b 0c03 473d b0b1 1b3d
000001f0: 167d aa3c e010 f43c 1ebd ac3c 4a0b 573c
00000200: 99d3 44bd 6f6d 653c aa9d 123d 3096 19bd
00000210: af44 253d 6745 c83c 876e 2dbc 86a0 91bc
00000220: 28d4 25bd 3516 8cbc 09ab 2b3b c776 033d
00000230: fd29 bfbb 88e9 2abd 5223 f0bc b118 603d
00000240: ac0e 643c 6717 973c 541c 45bd c4d4 cbbb
00000250: a611 643c 9224 36bd 6ec9 83bc 2d46 ccbb
00000260: f347 0cbd 0907 b7bc 747c ee3c 2919 96bc
00000270: fb45 3d3d 9e9c a5bb 0f94 0a3d c886 383d
00000280: 3132 c93c 291b 12bc 8fa8 4f3d b11d 3e3d
00000290: 2d5b 813c d29a 50bc 303d b53c 53dd 123d
000002a0: 3408 b7bc 661b c8bb 77b1 05bd 5fe1 4b3d
000002b0: e89a 0b3c b44d 11bc 52e4 d5bc 20d9 2abd
000002c0: 5c77 39bc 2383 f5bc 78e8 ba3c 311d d83c
000002d0: bc12 173d 64b7 8fbc d6cb 533c e577 2a3d
000002e0: 8f79 02bd 5d46 2abd a9b4 993a 1fcb b03b
000002f0: 5b8e 1bbd 81ba 943b b76c c73c 2a93 92bc
00000300: 5112 09bb d475 10bc 67e1 353c ceec cf3c
00000310: 8b63 0fbd 3c1e c33a 79f1 463d 66f3 463c
00000320: 78ef 9bbc 05dd 45bc b633 8b3c dbcc 893c
00000330: 1913 b1bb c20f 24bd b164 26bd c4a2 743c
00000340: 5ed7 ed3b 5b1c 03bd 5236 183d 50c5 8a3c
00000350: ae0c a33b 002f dbbc 648f 18b8 1972 b73b
00000360: e15f 2f3d 3df5 213a 6ca7 063d b20d 413c
00000370: db80 ce3c 446e ecbb bb12 093d 1250 1b3d
00000380: d288 18bd a16c 2abd eed2 423d 640c 9dbc
00000390: b4c4 bbbc aea2 7c3d 3112 abbc 9970 9e3b
000003a0: 9f9f 273c 18cf 13bd 4f90 633b 3e85 2cbd
000003b0: cfb6 023c dc60 9c3c 1d68 5e3c fd06 1fbd
000003c0: f359 883c e37f cc3c cbc7 69bc a01b 153d
000003d0: ba00 493c 5a27 c7bb 2230 d93c 8a11 d6bc
000003e0: af58 a13c b9de 7ebb 02d9 ec3b 285d 21bd
000003f0: cde8 0cbc a589 05bd 7bab 003c dcea 4e3d
-0.0026171193 0.024510186 0.039456796 -0.0334714 -0.024484763 0.03820878 0.013514987 -0.027852794
0.011981178 -0.009316254 -0.0028072775 -0.022044383 -0.03717144 -0.053143736 -0.06942396 0.020893797
-0.028775029 -0.01256444 -0.007693534 -0.028952552 0.020168353 4.5501856e-05 -0.0051376577 0.017785441
-0.019852262 0.0029799521 -0.00016434875 0.03572707 -0.036016624 -0.031155286 0.035201173 0.0036146317
0.018508732 0.011893692 -0.015992897 -0.02210763 -0.025014607 0.005543737 -0.041892696 -0.023323314
-0.0127125755 -0.057080854 -0.0007994189 0.039930902 -0.056530587 0.009820068 -0.021028847 -0.0037169512
-0.026571466 -0.031607807 -0.023437014 0.015603355 0.036999285 -0.042547263 0.01560815 -0.030174583
0.016711872 0.055403333 -0.009634797 0.010123808 -0.0054972162 -0.0062296707 0.029959071 -0.037260063
-0.034654103 -0.012071576 -0.034911666 -0.025814539 0.031388942 -0.008859043 0.02543781 0.01911194
0.05675348 0.031123633 -0.002831386 0.01032164 -0.008393587 -0.032503206 0.010389253 0.0048830244
-0.0078340685 0.005508819 -0.018536093 0.028740963 -0.030896645 0.039849944 0.02769572 -0.031543933
0.013804868 -0.0013804544 -0.056942817 0.026105847 -0.04218487 0.0015517783 -0.017548861 -0.019726817
0.030656379 0.0073463693 0.021132495 0.011157383 0.02304418 0.0058848877 -0.026885847 -0.006255778
-0.0052586114 -0.013555733 -0.0139814755 0.009757225 0.00029234315 0.028070588 0.0056942753 0.025492456
-0.012690101 0.0206375 -0.00039341144 -0.04282449 0.023480522 0.00456163 0.043277666 0.014442186
0.047838967 0.002282184 0.04858689 0.038011253 0.020811599 0.029793203 0.021086272 0.01312525
-0.048053358 0.014003142 0.03579489 -0.037496746 0.040348705 0.024447156 -0.010585434 -0.017776739
-0.04048553 -0.017100433 0.0026194474 0.032095697 -0.005833863 -0.04172662 -0.029313717 0.054711048
0.013919514 0.018443776 -0.04812272 -0.006220432 0.013920223 -0.04446847 -0.01608726 -0.0062339515
-0.034248304 -0.022342222 0.029112078 -0.018322544 0.046209317 -0.0050540706 0.033832606 0.045050412
0.024560066 -0.008917608 0.05069786 0.046415035 0.015790546 -0.012732225 0.022123903 0.035855602
-0.022342779 -0.006106782 -0.032639947 0.049775477 0.008520819 -0.0088686235 -0.026109848 -0.041710973
-0.011319961 -0.029969757 0.022815928 0.026381107 0.0368831 -0.017543502 0.012927016 0.041618247
-0.03185421 -0.04157101 0.0011726815 0.0053953077 -0.037977558 0.0045388346 0.024343831 -0.017892439
-0.0020915458 -0.008817155 0.011101103 0.025381472 -0.03500704 0.001488633 0.04857013 0.012142992
-0.019035086 -0.012076621 0.016992431 0.016821316 -0.005403888 -0.04005409 -0.04062337 0.0149313845
0.00725834 -0.032009464 0.03716118 0.016939789 0.004975877 -0.02675581 -3.6373167e-05 0.0055983183
0.042816047 0.0006178206 0.03287451 0.01178305 0.025207927 -0.007215293 0.03346513 0.037918158
-0.037239857 -0.041607503 0.04756444 -0.019170947 -0.022920944 0.06167858 -0.020882698 0.0048352
0.010230928 -0.036086172 0.0034723466 -0.042119257 0.007978155 0.019089155 0.013574627 -0.038825024
0.016644454 0.024963325 -0.014268826 0.0364033 0.01226824 -0.006077689 0.02651221 -0.02613141
0.019695608 -0.0038890077 0.007228018 -0.03939548 -0.008600426 -0.03260197 0.007853384 0.050516948

conv6.bias f4 [64]
00000000: 3129 05bd 5d4f 873c 2c3b 863b ddc3 1c3d
00000010: 6a5e 9bb9 efc1 4abd 72f0 5e3d 2735 193d
00000020: f474 b33c 9a2a b63c 8d8a 11bc f8c6 283d
00000030: 8b31 13bd 2975 32bd 3c59 10bb 45fe bd3c
00000040: b3e4 9abd 2072 133c 32cd 1c3d 73da 0fbd
00000050: a4f7 d43c f390 5fbb c4ba af3c 4eae 1e3d
00000060: 7ad3 52bd ef80 f93a 08e3 5e3d d7d7 1bbd
00000070: eb69 003d 73ad 903d c342 a3bc e22c 203a
00000080: 803c a43c a4a5 813d 4eb0 253d bfbc c03c
00000090: 6b44 87bc 4a04 41ba c8d1 303d d1d8 593d
000000a0: e7ae 0fbd 4921 38bd e575 b4bc d316 4bbd
000000b0: 2f2a c6bc e987 a63a 6895 28bc feb8 e0bb
000000c0: 98b6 02bc 75ce 08bd a27a 963d 40b2 253d
000000d0: 197a 11bd 9626 293d 2aec 513d 4f96 33bd
000000e0: 0cb1 bfbc 2266 42bd 5a8d ffbc 628c 49bc
000000f0: 0ffc d13b 2e70 7b3d 58f9 443d e085 453d
-0.032509986 0.016517336 0.0040964093 0.038272727 -0.00029634248 -0.049501356 0.054428525 0.037404206
0.021906354 0.02223711 -0.008883131 0.041205376 -0.03593592 -0.043568764 -0.0022025844 0.023192534
-0.07563152 0.0089993775 0.038281627 -0.03512044 0.02599699 -0.0034113496 0.021451361 0.03874045
-0.05147121 0.0019035618 0.054415733 -0.038047638 0.03135101 0.07064333 -0.019929295 0.00061102037
0.02004838 0.063304216 0.04045134 0.023527501 -0.016512116 -0.0007363005 0.043168813 0.053185288
-0.03507891 -0.04495362 -0.022028873 -0.049582314 -0.024190037 0.0012705299 -0.0102895275 -0.0068579903
-0.007978104 -0.033400018 0.07347609 0.040453196 -0.035516832 0.041296564 0.051250614 -0.043844517
-0.023399852 -0.047460683 -0.031195331 -0.012301536 0.0064082216 0.06138628 0.048089355 0.048223376
